models/baseline_model.pth (torch, 952781 bytes, 14 tensors)

network.1.weight f4 [256, 784]
-0.00015427655 7.111218e-05 -0.00026707046 0.0026992217 -0.011224268 -0.028872048 -0.00012641246 0.004620685
-0.044065673 -0.09677441 -0.03549984 0.089566186 0.06510811 3.9337865e-05 0.024342546 -0.077934295
0.044930484 0.19692321 0.11389572 -0.026462397 -0.20328207 -0.027469542 -0.024625113 -0.008966018
0.005619221 0.011884295 0.002534613 0.0023982495 -0.0003283374 0.00012534282 0.010137208 0.004899109
-0.00236518 -0.017771471 0.035522968 0.048851322 0.089139074 -0.038551208 -0.026645787 -0.09356422
-0.10850012 -0.058346983 0.1388313 -0.08326915 -0.007175818 -0.07209429 0.042838335 -0.07680759
0.090683356 0.10473667 0.005827472 -0.032496244 -0.0036433635 0.007939993 0.0011339053 -0.009827875
-7.2242314e-05 0.0051033827 0.0031747874 0.024346275 0.07143466 -0.023709863 -0.018001586 0.019218674
0.026349766 -0.008067369 0.008583808 -0.028349413 -0.09885636 0.05032059 0.16870226 0.009614935
0.077694856 -0.12568185 -0.09673892 -0.054244757 0.03567049 0.049551502 -0.038846184 0.0253912
-0.016819283 0.0055399686 -0.0035458498 -0.006453462 -0.0006782649 0.013967879 -0.0016624162 0.0019953127
0.00075161125 -0.105814934 -0.1337645 -0.041610185 0.005576647 -0.13429314 -0.09176423 0.0027907477
-0.16402614 -0.067216635 0.014702052 0.037993632 0.15853429 -0.12045164 0.010922398 -0.030457705
0.042768568 0.06447484 -0.05177291 -0.03143745 0.027079951 0.041708704 -0.0023403808 -0.005472153
-0.0015824052 0.0023660725 -0.021979533 -0.012381237 0.05207541 -0.016299551 -0.071084864 -0.06435641
-0.066660196 -0.19135784 0.14892745 0.111990295 0.103581004 0.1085472 0.11148731 0.0892794
0.21537033 0.03172589 -0.2131548 -0.10483825 -0.048572574 0.178231 0.022467583 0.07330234
0.0058771614 -0.022016538 0.0039041033 0.007499536 0.0054020057 -0.01941393 -0.013347725 -0.0039370656
-0.012791186 -0.012654217 -0.116843745 -0.059537023 -0.053085864 0.0073328824 0.04099719 0.089598365
-0.02445574 0.047081802 0.043594386 -0.061826576 0.078685425 0.011280583 0.009270027 -0.13340136
-0.047810055 0.05823028 -0.039914954 -0.0073132124 -0.010533693 0.02588729 0.0030205862 0.014556384
0.006933111 -0.005623883 0.0036860884 -0.013004494 -0.057556227 -0.046006594 -0.120291635 0.09982923
-0.09995586 -0.010490167 0.06992763 0.062437493 0.09198367 0.038715985 0.058488835 -0.06726722
0.00981537 0.04676089 -0.0524423 0.076410346 -0.020297624 -0.029467897 -0.05195635 0.109936565
0.009064727 -0.04837396 0.008724657 0.010773829 0.016724575 0.009283266 -0.008833104 -0.049791038
-0.07027107 0.005652626 0.049090393 -0.009781885 -0.23076704 -0.14892653 0.015310334 0.10265496
0.08897278 -0.0484223 0.121559665 0.012976767 -0.014852868 0.033666696 -0.019235244 -0.14882125
-0.13993049 0.019228885 -0.008477053 -0.009627671 -0.07369791 -0.07044228 0.09052418 0.039555836
0.015538853 0.015494046 0.027425345 -0.10600856 -0.10140818 0.011459131 0.16183454 -0.085376054
-0.28216678 -0.06996118 0.14419505 0.061083194 0.005757206 0.07074932 0.105780676 0.09317526
-0.09376255 -0.1573529 -0.08348782 -0.2801724 -0.093063876 0.030672476 -0.03275895 -0.011771271
-0.05334754 0.008890565 0.12795655 0.06790988 -0.0060751853 -0.00755856 0.005045587 -0.059060372
00000000: 4cc5 21b9 1022 9538 9705 8cb9 6de5 303b
00000010: fee5 37bc 1385 ecbc 968d 04b9 1d69 973b
00000020: 357e 34bd a931 c6bd 4868 11bd 7a6e b73d
00000030: 6757 853d b6fe 2438 056a c73c 049c 9fbd
00000040: 0709 383d 3da6 493e 2942 e93d abc7 d8bc
00000050: 2d29 50be ce07 e1bc 9bba c9bc 35e6 12bc
00000060: 7121 b83b 59b6 423c c01b 263b f32b 1d3b
00000070: b324 acb9 756e 0339 8816 263c b488 a03b
00000080: 2301 1bbb 7a95 91bc 8880 113d 5318 483d
00000090: 8c8e b63d dfe7 1dbd 4448 dabc 999e bfbd
000000a0: 5035 debd 3ffd 6ebd cb29 0e3e 0489 aabd
000000b0: 2023 ebbb 2ca6 93bd 4077 2f3d 4c4d 9dbd
000000c0: 32b8 b93d 2e80 d63d 61f4 be3b c81a 05bd
000000d0: 7fc5 6ebb bf16 023c 8c9f 943a 1805 21bc
000000e0: cc80 97b8 473a a73b 1810 503b d771 c73c
000000f0: 564c 923d 303b c2bc 1078 93bc 7b70 9d3c
00000100: 77db d73c 002d 04bc 1aa3 0c3c 073d e8bc
00000110: 3475 cabd f71c 4e3d 49c0 2c3e f687 1d3c
00000120: 7b1e 9f3d beb2 00be 0e1f c6bd c02f 5ebd
00000130: 381b 123d 84f6 4a3d 2d1d 1fbd 3501 d03c
00000140: 98c8 89bc a088 b53b 7d61 68bb 9077 d3bb
00000150: 96cd 31ba 88d9 643c 6ee5 d9ba cbc3 023b
00000160: c707 453a 80b5 d8bd 90f9 08be 716f 2abd
00000170: 4ebc b63b 2484 09be e2ee bbbd fae4 363b
00000180: 78f6 27be e0a8 89bd e0e0 703c 369f 1b3d
00000190: d056 223e 59af f6bd dcf3 323c 7082 f9bc
000001a0: 182e 2f3d 630b 843d d50f 54bd 8ec4 00bd
000001b0: c6d6 dd3c bfd6 2a3d 1361 19bb bf4f b3bb
000001c0: b568 cfba 1c10 1b3b 6c0e b4bc acda 4abc
000001d0: 064d 553d a386 85bc f194 91bd 4bcd 83bd
000001e0: 2485 88bd 4ff3 43be 7080 183e 2b5b e53d
000001f0: 4722 d43d ff4d de3d 7553 e43d 1ed8 b63d
00000200: 0a8a 5c3e 02f3 013d 4045 5abe 70b5 d6bd
00000210: 09f4 46bd 3082 363e f00d b83c 8a1f 963d
00000220: 3495 c03b 075c b4bc fcdb 7f3b abbe f53b
00000230: 4f03 b13b f609 9fbc 6bb0 5abc 8002 81bb
00000240: 1f92 51bc a253 4fbc c64b efbd 18dd 73bd
00000250: 9070 59bd ad48 f03b abec 273d 597f b73d
00000260: 6757 c8bc d9d8 403d 0790 323d dd3d 7dbd
00000270: d325 a13d 32d2 383c 50e1 173c 5e9a 08be
00000280: 7ad4 43bd e082 6e3d dd7d 23bd aca3 efbb
00000290: 8395 2cbc 9511 d43c 07f5 453b e67d 6e3c
000002a0: 272f e33b 8d48 b8bb 4d92 713b cd10 55bc
000002b0: 14c0 6bbd 6971 3cbd 765b f6bd 4473 cc3d
000002c0: a8b5 ccbd f3de 2bbc 3836 8f3d 75be 7f3d
000002d0: ef61 bc3d a794 1e3d fd91 6f3d 65c3 89bd
000002e0: a5d0 203c 5988 3f3d bdcd 56bd 077d 9c3d
000002f0: 3447 a6bc a966 f1bc 2fd0 54bd 6c26 e13d
00000300: 3984 143c c623 46bd ddf1 0e3c b784 303c
00000310: fa01 893c d718 183c b9b8 10bc b0f1 4bbd
00000320: 47ea 8fbd aa39 b93b 0213 493d 3344 20bc
00000330: 324e 6cbe 3280 18be 32d8 7a3c c33c d23d
00000340: 5c37 b63d 7656 46bd 46f4 f83d 819c 543c
00000350: 7259 73bc 17e6 093d 3b93 9dbc 9964 18be
00000360: f049 0fbe e585 9d3c 56e3 0abc 61bd 1dbc
00000370: eeee 96bd 0b44 90bd be64 b93d 4d05 223d
00000380: ac96 7e3c bdda 7d3c 1eab e03c 041b d9bd
00000390: 18af cfbd 14bf 3b3c f4b7 253e a4d9 aebd
000003a0: 2a78 90be cf47 8fbd dea7 133e 5f32 7a3d
000003b0: f2a6 bc3b 05e5 903d 8aa3 d83d acd2 be3d
000003c0: 9406 c0bd 1e21 21be aafb aabd c272 8fbe
000003d0: 4698 bebd d844 fb3c 402e 06bd 4adc 40bc
000003e0: f382 5abd bba9 113c 0b07 033e 5614 8b3d
000003f0: 5912 c7bb ccad f7bb 7455 a53b 4ae9 71bd

network.1.bias f4 [256]
7.4134175e-07 5.0256997e-08 -1.3620397e-07 1.0432328e-06 -1.4661091e-06 -5.2432654e-07 -1.4904448e-07 1.1212983e-06
1.727502e-07 3.2058662e-07 -5.9560216e-07 -3.8813255e-06 2.0941704e-06 1.5161751e-06 1.1876431e-06 8.94243e-07
-2.269488e-07 7.526641e-08 -6.8398487e-07 -1.091657e-06 2.8528365e-07 -8.6062585e-07 6.6795417e-07 -5.6573947e-07
-2.5435688e-07 -6.1576225e-07 3.2825465e-08 2.0319388e-07 -2.5468046e-07 -4.3949032e-07 -5.164533e-07 -3.961917e-07
7.597563e-07 1.7429068e-07 -3.5749743e-08 -3.8205857e-07 2.0976579e-07 -1.2630502e-06 -5.5685854e-07 -2.0029445e-06
3.959692e-08 -6.637915e-08 -1.09419965e-07 3.9571043e-07 2.8507696e-07 1.6490611e-07 4.1154323e-07 -4.2187477e-07
-3.3862932e-08 7.454357e-07 -6.9264524e-07 -1.463377e-06 3.6261582e-07 -1.9357437e-08 -7.3708617e-07 2.0778977e-07
4.6887752e-08 -1.7149745e-08 -4.1168656e-07 -2.2725894e-07 3.1528666e-07 3.8547324e-07 -8.637753e-07 4.4001337e-07
-1.6283711e-07 4.979868e-07 3.392484e-07 -1.5040297e-07 -7.964798e-07 -6.588916e-08 -3.658621e-07 -2.3191435e-06
2.3035955e-06 -5.547247e-07 7.812701e-07 8.8300686e-07 3.5578398e-07 -2.0697968e-07 4.2849828e-07 1.5539179e-06
6.3014505e-07 1.0791123e-08 7.121207e-07 2.2520483e-06 2.825942e-07 -1.5304899e-07 4.3239135e-07 2.2639273e-07
1.5827133e-07 -3.259483e-07 5.117532e-07 2.719613e-07 2.0233327e-07 -7.732058e-08 6.4519793e-07 -4.3600724e-07
2.1333076e-06 -1.3777986e-07 9.116726e-07 7.53652e-07 5.844107e-07 -7.096617e-07 2.3351497e-06 2.8201077e-09
1.0624653e-06 -5.726302e-07 -7.003452e-08 -4.6205435e-07 7.822944e-07 -1.6012861e-07 -1.052857e-06 1.3485969e-06
-2.1597634e-06 -4.3927084e-08 7.365603e-07 4.234973e-07 -8.6308023e-07 5.6487664e-07 -7.390985e-07 3.4128277e-07
9.0714514e-07 -2.9096032e-08 -4.3073257e-07 1.1058354e-06 6.215787e-08 4.0389284e-07 -1.7016549e-06 9.550885e-08
-2.2106023e-07 9.99335e-07 -6.1651775e-08 -4.0757442e-07 -4.4559226e-07 1.0682132e-07 8.2959116e-07 5.4880667e-07
-1.967236e-06 -2.5504397e-07 -5.557867e-08 -6.639598e-07 2.181688e-06 1.5519098e-06 -1.1021756e-06 -3.0194784e-07
7.293084e-07 1.2706714e-06 -4.2453067e-07 -4.937032e-07 4.90741e-07 1.4289151e-08 2.6725715e-07 1.8273232e-08
-9.0852075e-07 -3.2974935e-07 1.3034159e-07 -5.3420007e-07 -5.7769284e-07 1.01283874e-07 -5.885994e-08 1.1100523e-06
-6.504551e-07 -1.4652697e-06 2.8081672e-07 -8.905452e-07 1.9158014e-07 -7.121536e-08 -3.1015958e-07 -1.4014236e-06
5.678608e-07 -9.709457e-07 2.0914747e-07 1.4471536e-06 3.3907634e-07 -3.6041e-08 7.4677644e-07 -7.4312715e-07
-3.8059704e-06 -2.990165e-07 -1.25309745e-08 5.041469e-07 -2.037097e-07 2.4957427e-07 7.2071924e-07 7.500741e-07
-9.309551e-07 -4.9451966e-08 -2.1774433e-06 -5.6724865e-08 -1.1288856e-06 -6.371155e-07 -1.5775893e-07 -2.211639e-07
-8.882093e-07 -6.506013e-07 1.0939909e-06 -4.110873e-07 -2.0558603e-07 -4.177593e-07 -5.3089485e-07 -1.3965129e-06
-2.2179827e-07 3.5992008e-07 3.8639675e-07 -4.4875168e-07 -3.53725e-08 3.692518e-08 -2.7774766e-07 1.6870929e-07
-9.53969e-07 1.9385439e-07 5.2440015e-08 7.089613e-08 -3.277273e-07 -2.4979752e-08 -4.8402427e-08 -2.1729468e-07
-3.7978398e-07 -3.6024966e-07 -9.532095e-07 7.796061e-07 -6.4509845e-07 -7.998384e-07 6.8883713e-07 -6.025604e-08
-3.8502566e-07 -1.3395257e-07 1.08817666e-07 9.989446e-08 -5.5198404e-07 4.6860438e-07 -1.7943664e-07 4.834004e-07
7.414386e-07 -4.9665445e-09 -3.53441e-09 8.838156e-07 5.362053e-07 2.909157e-07 7.20017e-07 -1.2458393e-07
6.129418e-07 -5.696659e-07 4.6233634e-08 -1.1729924e-06 -1.1907332e-06 -1.6514263e-06 3.7704652e-07 -3.7540678e-07
-7.3164884e-08 -2.979698e-07 -3.8686696e-07 3.449675e-08 2.3469931e-07 8.542795e-07 -4.236265e-07 7.200899e-07
00000000: 9e00 4735 27da 5733 763f 12b4 3505 8c35
00000010: 20c7 c4b5 72bf 0cb5 0909 20b4 847f 9635
00000020: 377d 3934 171d ac34 78e1 1fb5 553c 82b6
00000030: 9389 0c36 617f cb35 1b67 9f35 e90b 7035
00000040: 36af 73b4 26a2 a133 159b 37b5 0d85 92b5
00000050: 1629 9934 c205 67b5 764d 3335 52dd 17b5
00000060: 8b8e 88b4 dc4a 25b5 fbfb 0c33 822d 5a34
00000070: 04bb 88b4 17f3 ebb4 67a2 0ab5 2cb4 d4b4
00000080: 0ef2 4b35 a824 3b34 428b 19b3 bb1d cdb4
00000090: fb3b 6134 1386 a9b5 077b 15b5 536a 06b6
000000a0: 4611 2a33 538c 8eb3 43fa eab3 0772 d434
000000b0: ae0c 9934 0c11 3134 12f2 dc34 077e e2b4
000000c0: b070 11b3 f419 4835 38ee 39b5 4069 c4b5
000000d0: 8aad c234 7447 a6b2 2ddc 45b5 d11c 5f34
000000e0: a161 4933 b050 93b2 c505 ddb4 7604 74b4
000000f0: ab44 a934 0af3 ce34 30de 67b5 fa3a ec34
00000100: 53d8 2eb4 64ad 0535 f221 b634 747e 21b4
00000110: adcd 55b5 f37e 8db3 b46b c4b4 95a2 1bb6
00000120: 7897 1a36 64e8 14b5 79b8 5135 c507 6d35
00000130: 9402 bf34 243e 5eb4 5b0c e634 3690 d035
00000140: 3d27 2935 dc63 3932 9028 3f35 e521 1736
00000150: 73b7 9734 c955 24b4 6a23 e834 5c16 7334
00000160: 4bf1 2934 fefd aeb4 6a5f 0935 1402 9234
00000170: f240 5934 700b a6b3 aa31 2d35 6114 eab4
00000180: f229 0f36 a4f0 13b4 aab9 7435 924e 4a35
00000190: 66e0 1c35 957f 3eb5 91b5 1c36 dccb 4131
000001a0: 089a 8e35 d9b6 19b5 e265 96b3 4410 f8b4
000001b0: ddfe 5135 d1ef 2bb4 e44f 8db5 7001 b535
000001c0: 74f0 10b6 57aa 3cb3 0ab8 4535 075d e334
000001d0: 6cae 67b5 07a2 1735 7666 46b5 8c39 b734
000001e0: 8a82 7335 daee f9b2 6f3f e7b4 376c 9435
000001f0: a77b 8533 9cd6 d834 6b64 e4b5 8c1a cd33
00000200: 935c 6db4 e420 8635 6c65 84b3 9ad0 dab4
00000210: bc39 efb4 a465 e533 12b1 5e35 b551 1335
00000220: db04 04b6 faec 88b4 65b5 6eb3 f83a 32b5
00000230: 1d69 1236 374b d035 77ee 93b5 651b a2b4
00000240: b1c5 4335 f08b aa35 0deb e3b4 0787 04b5
00000250: 77bb 0335 5a7c 7532 8b7b 8f34 43f7 9c32
00000260: 12e1 73b5 6808 b1b4 06f4 0b34 f365 0fb5
00000270: c012 1bb5 6681 d933 30cd 7cb3 1bfd 9435
00000280: ef9a 2eb5 49aa c4b5 28c3 9634 cd0d 6fb5
00000290: 26b5 4d34 0fef 98b3 0284 a6b4 8c18 bcb5
000002a0: 196f 1835 7151 82b5 0592 6034 d23b c235
000002b0: 4c0a b634 80cb 1ab3 1676 4835 4f7b 47b5
000002c0: 136a 7fb6 8488 a0b4 cf47 57b2 b654 0735
000002d0: 4cbb 5ab4 3afd 8534 7377 4135 b358 4935
000002e0: bfe6 79b5 0365 54b3 3120 12b6 a6a1 73b3
000002f0: 3784 97b5 3e06 2bb5 7264 29b4 1279 6db4
00000300: 476d 6eb5 fba4 2eb5 3ed5 9235 69b3 dcb4
00000310: 0fbf 5cb4 6748 e0b4 d182 0eb5 d16f bbb5
00000320: 7227 6eb4 0a3b c134 f771 cf34 f6eb f0b4
00000330: 7aec 17b3 aa97 1e33 591d 95b4 7526 3534
00000340: 200a 80b5 4a26 5034 683a 6133 8f3f 9833
00000350: 7ff2 afb4 0e93 d6b2 08e3 4fb3 8251 69b4
00000360: 1de5 cbb4 5668 c1b4 0fe0 7fb5 2046 5135
00000370: d42a 2db5 7ab4 56b5 87e8 3835 1c66 81b3
00000380: 86b5 ceb4 9ad4 0fb4 25af e933 8f85 d633
00000390: 0e2c 14b5 7f94 fb34 2bab 40b4 06c3 0135
000003a0: 4607 4735 30a6 aab1 00e2 72b1 583f 6d35
000003b0: bfef 0f35 262f 9c34 3147 4135 5fc5 05b4
000003c0: 0a89 2435 24eb 18b5 6b92 4633 b66f 9db5
000003d0: 48d1 9fb5 93a6 ddb5 e16c ca34 848b c9b4
000003e0: d21e 9db3 a8f8 9fb4 97b2 cfb4 9429 1433
000003f0: a801 7c34 a451 6535 c86e e3b4 334c 4135

network.2.weight f4 [256]
0.78054386 0.8022565 0.83127844 0.8194745 0.73299646 0.7380211 0.7087696 0.88551265
0.7760401 0.7957328 0.8758269 0.77581 0.769229 0.78889364 0.81729335 0.80550945
0.73480916 0.82097894 0.82366383 0.7393137 0.7806582 0.78524566 0.70725834 0.8415024
0.7938358 0.7842501 0.6603208 0.8611723 0.83676475 0.832083 0.79440725 0.7986927
0.86814874 0.79559356 0.83047396 0.82592183 0.7789374 0.8081754 0.86436963 0.78218395
0.72646636 0.81426835 0.7870081 0.8185794 0.7744283 0.7245946 0.7412764 0.7255224
0.8173556 0.79284203 0.77833086 0.8038648 0.82728595 0.83376795 0.7569101 0.7730755
0.7205568 0.83750975 0.8422277 0.79059297 0.85362357 0.8077995 0.7833243 0.7816799
0.78308743 0.80443305 0.7787872 0.78129166 0.7972617 0.828615 0.8135064 0.83449817
0.8324224 0.89802194 0.83149993 0.89186877 0.7870984 0.7803521 0.76158994 0.84697294
0.82381487 0.81210726 0.7936446 0.81087893 0.7048516 0.75498515 0.7799287 0.9258843
0.7279147 0.78381056 0.78167343 0.7199347 0.7874897 0.76560956 0.7232289 0.829923
0.8699467 0.6627595 0.7551686 0.71643287 0.7059008 0.7537477 0.75885284 0.7292735
0.7544604 0.7957668 0.84243816 0.7311063 0.78548074 0.8009024 0.8587542 0.8821164
0.82003 0.8399291 0.85487735 0.80689114 0.77745897 0.7294778 0.77966076 0.8357877
0.81567156 0.7155829 0.9137994 0.79314363 0.8024508 0.82281107 0.82695293 0.76087636
0.711967 0.78517866 0.8256849 0.82998425 0.83343667 0.79435354 0.7588001 0.7895389
0.8407479 0.80285037 0.78417367 0.8707939 0.8684986 0.7471497 0.79958004 0.81808776
0.7113135 0.84913003 0.7531057 0.7771768 0.7893437 0.79845536 0.7739815 0.80638754
0.9120926 0.8575409 0.7728885 0.71729505 0.7689701 0.83184385 0.7148052 0.78647435
0.8013141 0.91153836 0.7907703 0.7599534 0.7312936 0.71256554 0.7236491 0.7543376
0.7818167 0.82588524 0.86389667 0.724136 0.7123951 0.75393975 0.71353287 0.7836774
0.8302939 0.7033908 0.90517294 0.86664706 0.8175092 0.78314567 0.8193877 0.88529485
0.8747385 0.78093445 0.7746693 0.87771463 0.8207109 0.7749684 0.82009435 0.83032745
0.7585977 0.8017277 0.8911261 0.8368814 0.77651453 0.8411815 0.84863716 0.8463147
0.83100414 0.7722806 0.8723177 0.7505267 0.8570483 0.7780198 0.80003536 0.8999937
0.8439795 0.6950183 0.8375783 0.81861544 0.7671188 0.86244303 0.78702307 0.75490594
0.9172209 0.7521793 0.75158757 0.7538696 0.7881159 0.73513234 0.89911145 0.88328236
0.757817 0.7513419 0.72650945 0.7827886 0.749314 0.7718787 0.7230224 0.7376554
0.8013059 0.8475978 0.84600407 0.7687113 0.7552636 0.77490556 0.8144874 0.780063
0.72779334 0.7773467 0.7784524 0.877414 0.71018624 0.894765 0.80511135 0.75448173
0.63171077 0.767969 0.7607287 0.7175744 0.6992229 0.81093657 0.85483295 0.83095354
00000000: b9d1 473f af60 4d3f aace 543f 15c9 513f
00000010: a8a5 3b3f f3ee 3c3f ed71 353f f5b0 623f
00000020: 90aa 463f 25b5 4b3f 3136 603f 7c9b 463f
00000030: 31ec 443f eff4 493f 233a 513f de35 4e3f
00000040: 741c 3c3f ad2b 523f a2db 523f aa43 3d3f
00000050: 37d9 473f dc05 493f e20e 353f b46c 573f
00000060: d338 4b3f 9dc4 483f c90a 293f ca75 5c3f
00000070: 3736 563f 6403 553f 465e 4b3f 2077 4c3f
00000080: ff3e 5e3f 05ac 4b3f f199 543f 9d6f 533f
00000090: 7168 473f 95e4 4e3f 5447 5d3f 353d 483f
000000a0: b3f9 393f e473 503f 5d79 493f 6b8e 513f
000000b0: ef40 463f 087f 393f 4ac4 3d3f d6bb 393f
000000c0: 373e 513f b2f7 4a3f b140 473f 15ca 4d3f
000000d0: 03c9 533f d171 553f dcc4 413f 47e8 453f
000000e0: 6976 383f 0a67 563f 3c9c 573f 4d64 4a3f
000000f0: 1387 5a3f f3cb 4e3f f187 483f 2d1c 483f
00000100: 6b78 483f 53ef 4d3f 995e 473f bb02 483f
00000110: 5819 4c3f 1d20 543f f541 503f aca1 553f
00000120: a219 553f c4e4 653f 2edd 543f 8351 643f
00000130: 487f 493f 28c5 473f 8ff7 423f 38d3 583f
00000140: 88e5 523f 43e6 4f3f 4b2c 4b3f c395 4f3f
00000150: 2871 343f b546 413f 68a9 473f c106 6d3f
00000160: 9e58 3a3f cfa7 483f c01b 483f a44d 383f
00000170: ed98 493f fdfe 433f 8725 393f d575 543f
00000180: d4b4 5e3f 9baa 293f bb52 413f 2568 373f
00000190: eab5 343f 9cf5 403f 2e44 423f abb1 3a3f
000001a0: 5124 413f 5fb7 4b3f 07aa 573f c829 3b3f
000001b0: 4415 493f f107 4d3f 51d7 5b3f 61d2 613f
000001c0: 7ced 513f 9805 573f 3ed9 5a3f 6b90 4e3f
000001d0: 8d07 473f 0fbf 3a3f d997 473f 2ff6 553f
000001e0: dacf 503f 7130 373f c2ee 693f 760b 4b3f
000001f0: 6a6d 4d3f bfa3 523f 30b3 533f cbc8 423f
00000200: 7843 363f 7801 493f 1660 533f d979 543f
00000210: 1b5c 553f c15a 4b3f b940 423f 391f 4a3f
00000220: 413b 573f 9a87 4d3f 9bbf 483f 59ec 5e3f
00000230: ed55 5e3f 3445 3f3f 47b1 4c3f 336e 513f
00000240: a418 363f 9660 593f 89cb 403f 0ff5 463f
00000250: 6e12 4a3f 9267 4c3f a723 463f 6a6f 4e3f
00000260: e77e 693f cd87 5b3f 05dc 453f a6a0 373f
00000270: 39db 443f b8f3 543f 79fd 363f 6256 493f
00000280: ec22 4d3f 945a 693f ec6f 4a3f 4e8c 423f
00000290: 0f36 3b3f b26a 363f 1141 393f 451c 413f
000002a0: 2425 483f 376d 533f 5528 5d3f fa60 393f
000002b0: 865f 363f 3202 413f 17aa 363f 159f 483f
000002c0: 248e 543f 6b11 343f 6ab9 673f 95dc 5d3f
000002d0: 4848 513f 3c7c 483f 64c3 513f afa2 623f
000002e0: ddee 5f3f 52eb 473f ba50 463f e8b1 603f
000002f0: 1c1a 523f 5464 463f b4f1 513f 5790 543f
00000300: 7533 423f 073e 4d3f d720 643f dc3d 563f
00000310: a8c9 463f ac57 573f 4940 593f 15a8 583f
00000320: b0bc 543f 2eb4 453f 3650 5f3f 8522 403f
00000330: 8467 5b3f 4e2c 473f 1ecf 4c3f fd65 663f
00000340: 0a0f 583f b8ec 313f 886b 563f c890 513f
00000350: e661 443f 11c9 5c3f 587a 493f 8441 413f
00000360: fdce 6a3f d38e 403f 0b68 403f 99fd 403f
00000370: f7c1 493f a231 3c3f 2b2c 663f cb1e 623f
00000380: 4b00 423f f157 403f 86fc 393f d564 483f
00000390: 0bd3 3f3f d899 453f ff17 393f fcd6 3c3f
000003a0: 6222 4d3f 2bfc 583f b993 583f 44ca 443f
000003b0: f558 413f 3660 463f 3f82 503f 35b2 473f
000003c0: aa50 3a3f 3100 473f a848 473f 349e 603f
000003d0: c4ce 353f 520f 653f c71b 4e3f b725 413f
000003e0: ccb7 213f 9e99 443f 1ebf 423f f5b2 373f
000003f0: 4600 333f 8a99 4f3f 55d6 5a3f 5fb9 543f

network.2.bias f4 [256]
-0.2598428 -0.09628778 -0.25251296 -0.24017262 -0.2920685 -0.21267541 -0.39381588 -0.24219143
-0.29858792 -0.17968604 -0.20499396 -0.2654381 -0.25638777 -0.19296682 -0.33337858 -0.23352292
-0.31499842 -0.3815778 -0.16044687 -0.14305031 -0.28411573 -0.33268717 -0.2262984 -0.11216004
-0.10300591 -0.2704745 -0.2638727 -0.30492246 -0.19581677 -0.27386692 -0.1977587 -0.29763156
-0.20012513 -0.34509003 -0.2847339 -0.21954465 -0.30024105 -0.1624087 -0.25610602 -0.323046
-0.25841552 -0.29796994 -0.21048164 -0.17932257 -0.1833232 -0.16347617 -0.23335306 -0.1556699
-0.37381983 -0.2985399 -0.20340791 -0.2796693 -0.3794395 -0.3606932 -0.3647088 -0.2630824
-0.23304419 -0.19509539 -0.25589007 -0.20978926 -0.29931143 -0.13307467 -0.23398358 -0.17113827
-0.30826512 -0.28711256 -0.2899672 -0.31296122 -0.28285336 -0.1980065 -0.25881276 -0.19858545
-0.34713462 -0.3254407 -0.26631472 -0.33095503 -0.25224406 -0.23383221 -0.26784885 -0.26464796
-0.20360912 -0.20553033 -0.23214197 -0.22363235 -0.28430262 -0.19633828 -0.28389505 -0.24388868
-0.28765407 -0.33541805 -0.21797177 -0.20183313 -0.17620508 -0.14792955 -0.27279082 -0.25218934
-0.1397767 -0.2177787 -0.10350831 -0.1904264 -0.19867522 -0.24571103 -0.2492998 -0.19188362
-0.3382695 -0.26193893 -0.15311028 -0.2714158 -0.2763016 -0.23754339 -0.21479785 -0.18049544
-0.2165571 -0.3380612 -0.26818377 -0.2337141 -0.29492426 -0.26502717 -0.23937036 -0.25423735
-0.2753307 -0.300761 -0.3860521 -0.24300496 -0.22141804 -0.24448308 -0.33039778 -0.23199552
-0.21403874 -0.23549543 -0.37523025 -0.31941846 -0.23349272 -0.26813763 -0.1316535 -0.28438434
-0.30699933 -0.26202887 -0.19826634 -0.26232705 -0.34449923 -0.23733854 -0.2434672 -0.18851325
-0.39430824 -0.13078701 -0.27773428 -0.2670729 -0.2764589 -0.254843 -0.25085807 -0.3330424
-0.29964104 -0.3113996 -0.20853695 -0.29269555 -0.31025177 -0.28870752 -0.27690077 -0.13883051
-0.29146487 -0.22822523 -0.37909037 -0.29918063 -0.19804572 -0.17281781 -0.21672896 -0.2765124
-0.20111223 -0.23186633 -0.3892057 -0.36504677 -0.15278044 -0.26837704 -0.32897347 -0.25182322
-0.30368495 -0.19673482 -0.30230793 -0.29550353 -0.23943081 -0.21666396 -0.28488615 -0.14679731
-0.31517053 -0.17775534 -0.30473378 -0.32470694 -0.19609119 -0.2126179 -0.33229637 -0.22242342
-0.27111295 -0.2379809 -0.2305105 -0.22968107 -0.18120241 -0.23539427 -0.16854692 -0.26752493
-0.29880103 -0.28229842 -0.24519533 -0.1251664 -0.27991587 -0.37750226 -0.2909455 -0.4546861
-0.27908248 -0.120392404 -0.2777798 -0.355891 -0.14454253 -0.21174552 -0.16660017 -0.22765835
-0.14456934 -0.26023117 -0.31661803 -0.3240607 -0.3375605 -0.21865575 -0.3434578 -0.3416641
-0.27087265 -0.2371541 -0.33236325 -0.1875584 -0.2851613 -0.26308483 -0.19804266 -0.32772812
-0.18994091 -0.23881502 -0.23044832 -0.25576767 -0.20633341 -0.1990739 -0.24350081 -0.25423762
-0.24238136 -0.25646454 -0.24094242 -0.25746685 -0.19266647 -0.15712996 -0.2919444 -0.326165
-0.23130886 -0.23159485 -0.21706127 -0.3299329 -0.28254288 -0.18119152 -0.24589767 -0.20617487
00000000: 1e0a 85be 8732 c5bd 6149 81be d0ef 75be
00000010: 018a 95be 95c7 59be 3ca2 c9be 0801 78be
00000020: 84e0 98be 9eff 37be f0e9 51be 81e7 87be
00000030: 4245 83be 1899 45be 99b0 aabe a220 6fbe
00000040: 7947 a1be 2a5e c3be 2f4c 24be c87b 12be
00000050: 9e77 91be f955 aabe c5ba 67be 2ab4 e5bd
00000060: c3f4 d2bd a27b 8abe 531a 87be cc1e 9cbe
00000070: 3184 48be 4938 8cbe 4281 4abe 2a63 98be
00000080: 9aed 4cbe a4af b0be a4c8 91be 50d0 60be
00000090: 32b9 99be 774e 26be 5420 83be 4966 a5be
000000a0: 0a4f 84be 848f 98be 8088 57be 56a0 37be
000000b0: 14b9 3bbe 4c66 27be 1bf4 6ebe ee67 1fbe
000000c0: 5065 bfbe 39da 98be 2a4a 50be d130 8fbe
000000d0: e545 c2be c7ac b8be 1dbb babe bdb2 86be
000000e0: 23a3 6ebe 16c7 47be 0604 83be ffd2 56be
000000f0: 593f 99be ba44 08be 6499 6fbe df3e 2fbe
00000100: edd4 9dbe 6b00 93be 9576 94be 743c a0be
00000110: 28d2 90be 37c2 4abe 1b83 84be fc59 4bbe
00000120: a1bb b1be 2aa0 a6be 675a 88be f072 a9be
00000130: 2226 81be b671 6fbe 7c23 89be f07f 87be
00000140: e97e 50be 8b76 52be a0b6 6dbe e1ff 64be
00000150: 1d90 91be e70c 49be b15a 91be f4bd 79be
00000160: 6547 93be eabb abbe fe33 5fbe 58ad 4ebe
00000170: 1b6f 34be d87a 17be 3dab 8bbe f61e 81be
00000180: a021 0fbe 6101 5fbe 2afc d3bd 23ff 42be
00000190: 8471 4bbe ac9b 7bbe 7248 7fbe 247d 44be
000001a0: a931 adbe dc1c 86be f1c8 1cbe 03f7 8abe
000001b0: 6777 8dbe 933e 73be f8f3 5bbe ccd3 38be
000001c0: 25c1 5dbe 5c16 adbe 624f 89be c052 6fbe
000001d0: 5000 97be a4b1 87be 811d 75be 662b 82be
000001e0: 25f8 8cbe 59fd 99be 9fa8 c5be 4bd6 78be
000001f0: 69bb 62be c659 7abe e629 a9be 3c90 6dbe
00000200: f92c 5bbe b725 71be 2e1e c0be d18a a3be
00000210: b718 6fbe 5649 89be 2dd0 06be d39a 91be
00000220: 042f 9dbe a628 86be 5506 4bbe bb4f 86be
00000230: 3462 b0be e008 73be 774f 79be 9e09 41be
00000240: c5e2 c9be 08ed 05be 3033 8ebe c7bd 88be
00000250: 058c 8dbe c87a 82be 7870 80be 8984 aabe
00000260: 8d6a 99be c56f 9fbe b68a 55be 31dc 95be
00000270: 52d9 9ebe 79d1 93be f0c5 8dbe 9629 0ebe
00000280: e23a 95be e0b3 69be 2218 c2be 342e 99be
00000290: 7fcc 4abe 27f7 30be 32ee 5dbe 0993 8dbe
000002a0: 5df0 4dbe 5e6e 6dbe f845 c7be 69e7 babe
000002b0: 7a72 1cbe b768 89be 366f a8be f9ee 80be
000002c0: 987c 9bbe da74 49be 1bc8 9abe 3d4c 97be
000002d0: 5a2d 75be 28dd 5dbe 99dc 91be 0952 16be
000002e0: 085e a1be 7f05 36be 1106 9cbe fd3f a6be
000002f0: 21cc 48be 82b8 59be c022 aabe f7c2 63be
00000300: 51cf 8abe 44b1 73be f20a 6cbe 8431 6bbe
00000310: 208d 39be 320b 71be 9097 2cbe 07f9 88be
00000320: 73fc 98be 6b89 90be 7c14 7bbe 9f2b 00be
00000330: 2251 8fbe fa47 c1be cff6 94be 9ecc e8be
00000340: e6e3 8ebe 4b90 f6bd 2739 8ebe 5837 b6be
00000350: f502 14be d1d3 58be 3c99 2abe 451f 69be
00000360: fc09 14be 053d 85be c21b a2be 49eb a5be
00000370: bbd4 acbe 4be7 5fbe b3d9 afbe 99ee aebe
00000380: d2af 8abe 86d8 72be 842b aabe 4f0f 40be
00000390: a900 92be 0eb3 86be b2cb 4abe fbcb a7be
000003a0: df7f 42be ed8b 74be a5fa 6bbe fbf3 82be
000003b0: 1149 53be 07da 4bbe 4758 79be 6f2b 82be
000003c0: d232 78be 524f 83be 9cb9 76be b2d2 83be
000003d0: 5c4a 45be ade6 20be bd79 95be 19ff a6be
000003e0: 3bdc 6cbe 3327 6dbe 4f45 5ebe f7ec a8be
000003f0: 76a9 90be 458a 39be 99cc 7bbe 811f 53be

network.2.running_mean f4 [256]
0.19315527 0.37513164 -0.04830662 -0.35344994 -0.39317924 0.7360203 0.071660995 -0.40758663
-0.6529692 0.31964958 0.3278604 0.83611596 -0.28077146 -0.42528114 -0.5935441 0.05954682
-0.118327275 0.05930043 -0.058390938 0.2640686 -1.0173514 -0.53788114 -0.16675629 0.3216216
0.3360711 0.03179957 0.53587025 -0.51573443 0.061365217 -0.2222835 0.31416914 0.31903198
-0.45519778 -0.7521503 -0.21239042 -0.37377268 -0.45482206 0.040696993 -0.17977011 -0.41429526
-0.08558533 0.16580667 -0.3378633 0.101420246 -0.45238632 -0.61649007 -0.73938274 -0.34529173
-1.0329841 -0.6721032 -0.3024156 -0.77020776 -0.12017771 -0.58377266 -0.23896527 -0.45411032
-0.4276378 0.12990636 0.2018579 -0.6520482 0.42817378 -0.03263566 -0.046244062 -0.59371305
-0.58467263 -0.485331 -0.80174154 -0.52305734 -0.82039845 -0.33321428 -0.34054023 -0.1653299
-0.14219455 -0.10895437 0.123339556 -0.46956024 -0.35054994 -0.39816722 0.25556728 0.099574044
-0.30447757 -0.24748361 -0.44530222 0.32938156 -1.2165759 -0.30853403 -0.37630773 -0.35954848
-0.7271013 -0.34756726 -0.32649437 -0.08140137 0.57571954 -0.5633308 -0.3847497 -0.63256156
0.1429347 0.732376 0.06574627 -0.5202777 -0.63965946 0.18822448 0.2992626 -0.13697329
-0.31949374 -0.82028204 -0.123093724 -0.62421346 -0.4674559 -0.28729048 -0.1170365 -0.23694569
-0.018448133 -0.56496614 -0.074977525 -0.5501812 1.716128 -0.55585575 -0.22561672 -0.11662301
-0.24793552 -0.55628884 -0.33095923 -0.01398259 0.054901406 -0.4913115 -0.32689703 -0.5351126
0.00013477448 -0.480747 -0.8777591 -0.30869403 -0.06417426 -0.13016364 1.8843571 -0.51792234
0.08618204 0.3348285 0.6299909 -0.18008634 -0.0070419866 0.685722 0.038093954 -0.019371593
-0.5528866 -0.26546624 0.22031896 -0.062366076 -0.19320679 -0.46906614 -0.6161117 -0.027504712
-0.19635531 -0.52677274 -0.20861971 -0.8164657 -0.7848389 -0.035627414 -0.43934682 0.06322138
-0.65390325 -0.13302024 -0.30579215 -0.9345522 -0.48795164 -0.10010348 0.28496385 -0.07939124
-0.1059302 0.15844783 -0.47346452 -0.73334247 0.58665085 -0.6208641 -0.28213826 -0.084513955
-0.009696969 -0.72451717 0.123612754 -0.31634554 -0.39904934 -0.74940574 0.2748096 0.35822636
-0.08117278 -0.24913044 -0.20279919 0.90484464 -0.05644842 -0.21872723 -0.45270336 -0.1190946
0.06271352 0.10172792 -0.059168093 -0.5323486 0.039942563 -0.65022445 0.041503448 -0.14990065
-0.7060335 -0.020539787 -0.03612774 0.06770981 0.13727753 -0.3103407 -0.773135 -0.17594224
0.02204542 -0.056394376 -0.43864548 -0.41292137 -0.46321335 0.005965282 1.4808154 0.06894014
-0.11614499 -0.6954953 -0.36116624 -0.7859267 -0.6275319 1.0968949 -0.2649186 -0.3296485
-0.3097528 0.68329734 -0.44402015 -0.11864862 0.3078559 -1.1313365 0.5243791 0.41394818
0.010153141 0.45081103 -0.3011871 1.1084422 -0.46973094 0.46718076 -0.15102877 -0.037428737
-0.6751341 -0.6943956 0.42384508 0.22854558 0.5314783 -0.42833716 -0.56256783 0.60957164
-0.14803755 0.06307465 -0.30259594 -1.3377262 0.09157499 -0.49801663 -0.28647417 -0.0796125
00000000: 7fca 453e 4111 c03e 2add 45bd 64f7 b4be
00000010: ca4e c9be d46b 3c3f 00c3 923d 32af d0be
00000020: fd28 27bf 1ca9 a33e 51dd a73e b20b 563f
00000030: 47c1 8fbe 73be d9be 82f2 17bf 5ee7 733d
00000040: 9255 f2bd 02e5 723d 562b 6fbd 0034 873e
00000050: 9238 82bf 94b2 09bf 29c2 2abe 96ab a43e
00000060: 8311 ac3e 4440 023d cb2e 093f 2c07 04bf
00000070: 185a 7b3d 499e 63be c7da a03e 2958 a33e
00000080: af0f e9be ec8c 40bf e07c 59be 225f bfbe
00000090: 70de e8be e4b1 263d a815 38be 821e d4be
000000a0: 5d47 afbd 39c9 293e 6bfc acbe 6bb5 cf3d
000000b0: 2e9f e7be 4bd2 1dbf 3048 3dbf 14ca b0be
000000c0: d338 84bf f50e 2cbf 38d6 9abe 562c 45bf
000000d0: bb1f f6bd 2072 15bf 50b3 74be 2681 e8be
000000e0: 57f3 dabe 2c06 053e d6b3 4e3e a1ec 26bf
000000f0: 9839 db3e f8ac 05bd 6a6a 3dbd 94fd 17bf
00000100: 1bad 15bf 4e7d f8be ef3e 4dbf 16e7 05bf
00000110: a205 52bf 109b aabe 4a5b aebe 3e4c 29be
00000120: 739b 11be 7823 dfbd 7399 fc3d 336a f0be
00000130: 487b b3be 93dc cbbe b7d9 823e 7aed cb3d
00000140: 7ce4 9bbe 586c 7dbe a7fe e3be b3a4 a83e
00000150: c2b8 9bbf 2cf8 9dbe 68ab c0be bd16 b8be
00000160: 5023 3abf 56f4 b1be 452a a7be c3b5 a6bd
00000170: 5b62 133f 7336 10bf eafd c4be 8eef 21bf
00000180: 795d 123e fe7c 3b3f fba5 863d eb30 05bf
00000190: b9c0 23bf ebbd 403e f338 993e ba42 0cbe
000001a0: af94 a3be 01fe 51bf 9018 fcbd 74cc 1fbf
000001b0: 6156 efbe bd17 93be d5b0 efbd e4a1 72be
000001c0: 8a20 97bc 9fa1 10bf d18d 99bd add8 0cbf
000001d0: 15aa db3f 904c 0ebf 1208 67be 0bd8 eebd
000001e0: cfe2 7dbe f268 0ebf 7d73 a9be 3c17 65bc
000001f0: 4ce0 603d 2e8d fbbe 0c5f a7be 24fd 08bf
00000200: 4052 0d39 7924 f6be d2b4 60bf 250d 9ebe
00000210: cb6d 83bd 9e49 05be 9d32 f13f 8f96 04bf
00000220: 3680 b03d a46e ab3e 1547 213f 8e68 38be
00000230: 77c0 e6bb 7a8b 2f3f 6808 1c3d 2db1 9ebc
00000240: fa89 0dbf 31eb 87be 4b9b 613e 9273 7fbd
00000250: 00d8 45be 7029 f0be 7fb9 1dbf 9051 e1bc
00000260: 5e11 49be 94da 06bf 68a0 55be e503 51bf
00000270: 34eb 48bf 0dee 11bd 11f2 e0be 367a 813d
00000280: 3466 27bf 7536 08be ca90 9cbe d03e 6fbf
00000290: ccd4 f9be 0e03 cdbd c8e6 913e e097 a2bd
000002a0: eff1 d8bd 2640 223e f169 f2be 55bc 3bbf
000002b0: c02e 163f f3f0 1ebf 6d74 90be a715 adbd
000002c0: 09e0 1ebc f579 39bf af28 fd3d 0bf8 a1be
000002d0: 3250 ccbe 0ed9 3fbf d8b3 8c3e 7269 b73e
000002e0: ea3d a6bd 0d1c 7fbe 97aa 4fbe e6a3 673f
000002f0: 7536 67bd 08fa 5fbe bcc8 e7be dfe7 f3bd
00000300: f26f 803d ba56 d03d 3e5a 72bd ff47 08bf
00000310: d09a 233d 1c75 26bf 85ff 293d 8e7f 19be
00000320: 9dbe 34bf 0e43 a8bc aefa 13bd 71ab 8a3d
00000330: 7b92 0c3e fae4 9ebe 2dec 45bf 342a 34be
00000340: 9998 b43c cafd 66bd 2496 e0be 6e6a d3be
00000350: 4d2a edbe 6a78 c33b 5c8b bd3f 7d30 8d3d
00000360: 6ddd edbd fb0b 32bf c8ea b8be 7e32 49bf
00000370: eea5 20bf 0d67 8c3f 69a3 87be b0c7 a8be
00000380: eb97 9ebe 93ec 2e3f 9c56 e3be 0cfe f2bd
00000390: 4a9f 9d3e a2cf 90bf b53d 063f 04f1 d33e
000003a0: 5c59 263c b4d0 e63e 3235 9abe 6fe1 8d3f
000003b0: 9380 f0be 5132 ef3e 49a7 1abe e04e 19bd
000003c0: 97d5 2cbf e9c3 31bf 3902 d93e da07 6a3e
000003d0: f60e 083f 024f dbbe 7204 10bf e30c 1c3f
000003e0: 2897 17be 482d 813d dbed 9abe 9d3a abbf
000003f0: ab8b bb3d 09fc febe beac 92be e10b a3bd

network.2.running_var f4 [256]
0.42129108 0.67606115 0.41462895 0.6157666 0.43465963 0.52341247 0.37121686 1.252505
0.4696572 0.42680392 0.5619841 0.37885854 0.3453819 0.65387386 0.48106954 0.41789567
0.4119077 0.48869708 0.5167048 0.4654458 0.9068363 0.556339 0.53387725 0.49955848
0.5224406 0.4146532 0.65104455 0.6980763 0.5580984 0.42758515 0.43822253 0.77695596
0.6851316 0.61307126 0.6239569 0.7915162 0.6584399 0.561313 0.46727294 0.5315731
0.34698293 0.24684642 0.5495673 0.5737691 0.7659423 0.529631 0.68395555 0.45171103
0.8014984 0.663271 0.6008623 0.8065947 0.39600736 0.48954698 0.39034152 0.79341227
0.3472463 0.33851898 0.37692425 0.61125416 0.65859896 0.6717281 0.5703607 0.6786195
0.63492507 0.5861731 0.882076 0.5114094 0.917256 0.7031328 0.4514262 0.4072794
0.34177154 0.3441753 0.6862583 0.6520627 0.5077092 0.5295298 0.45068723 0.39191043
0.705745 0.49104443 0.36895248 0.43807304 1.9444246 0.78374636 0.3831982 0.48699325
0.6516057 0.59264165 0.73022354 0.43305868 0.344689 0.79913455 0.5130984 0.5580075
0.44861817 0.25654292 0.67615694 0.8293234 0.71175456 0.39352098 0.21885394 0.4915564
0.5792098 0.93313175 0.7918443 0.57984823 0.55496526 0.43969363 0.46330655 1.0256132
0.40904152 1.131383 0.47368842 0.87535006 0.67958814 0.5117937 0.31610313 0.54843163
0.53836656 0.56637573 0.6316554 0.3888373 0.5143539 0.55216086 0.48015746 1.0595288
0.55950844 0.3919905 0.71586996 0.5307347 0.40826055 0.41657346 0.58158123 0.3921732
0.38201994 0.61244315 0.4084694 0.607713 0.37177804 0.32528085 0.4551759 0.443971
0.46013704 0.5580208 0.31285208 0.48196268 0.43355098 0.6000943 0.6076374 0.356909
0.45713636 0.5827796 0.44735423 0.3588826 0.63925517 0.36608905 0.30506042 0.37748423
0.8456453 0.44205415 0.4723919 0.56900644 0.7838524 0.43793994 0.3383643 0.4545263
0.6928535 0.5048306 0.51973635 0.45413294 0.39862043 0.5698224 0.47711304 0.3360315
0.29405123 0.9869551 0.4710535 0.87851465 0.6342157 0.6397852 0.5422452 0.35159174
0.50044346 0.40150756 0.40155753 0.59630775 0.49130267 0.441519 0.4850727 0.45273578
0.3349763 0.4929053 0.62458634 0.553243 0.43049458 0.6098469 0.7836202 0.65290064
0.8496129 0.6198892 0.4537058 0.3807474 0.45767903 0.46823668 0.69990593 0.77894384
0.42669418 0.6723447 0.575691 0.700054 0.9907004 0.4425971 0.57652146 0.629945
0.65299296 0.5928169 0.31524062 0.36500496 0.45757574 0.34695497 0.4217709 0.445452
0.45767522 0.63308424 0.6303401 0.5065841 0.38610697 0.95566547 0.44772854 0.48763895
0.63187116 0.3694492 0.49232098 0.39870706 0.54839355 0.38143173 0.4806157 0.46483076
0.46564835 0.81370896 0.40169513 0.43459418 0.31676385 0.7189133 0.7508211 0.422045
0.30056232 0.620996 0.51007587 1.3561307 0.79772276 0.5621024 0.5593842 0.6387275
00000000: 77b3 d73e 5812 2d3f 3f4a d43e e1a2 1d3f
00000010: b58b de3e 5cfe 053f 2310 be3e 1552 a03f
00000020: e976 f03e 0b86 da3e 31de 0f3f bff9 c13e
00000030: e5d5 b03e 4764 273f bf4e f63e 6cf6 d53e
00000040: 91e5 d23e 8136 fa3e c446 043f e94e ee3e
00000050: 6c26 683f 3c6c 0e3f 2eac 083f 21c6 ff3e
00000060: abbe 053f 6d4d d43e dbaa 263f 21b5 323f
00000070: 89df 0e3f 71ec da3e b45e e03e 96e6 463f
00000080: c964 2f3f 3df2 1c3f a4bb 1f3f cea0 4a3f
00000090: 848f 283f 35b2 0f3f 663e ef3e 2d15 083f
000000a0: bfa7 b13e 4fc5 7c3e 71b0 0c3f 88e2 123f
000000b0: cb14 443f e695 073f b617 2f3f ab46 e73e
000000c0: 002f 4d3f 21cc 293f 1dd2 193f fe7c 4e3f
000000d0: 7ac1 ca3e e7a5 fa3e d8da c73e 111d 4b3f
000000e0: 44ca b13e 5c52 ad3e 37fc c03e 277b 1c3f
000000f0: f199 283f 5ff6 2b3f 2903 123f 02ba 2d3f
00000100: 738a 223f 710f 163f bccf 613f baeb 023f
00000110: 4ad1 6a3f 8300 343f 5621 e73e ed86 d03e
00000120: aefc ae3e bf37 b03e a0ae 2f3f 95ed 263f
00000130: 3bf9 013f 448f 073f 7ac0 e63e 7ca8 c83e
00000140: b4ab 343f 2d6a fb3e 57e7 bc3e 1c4b e03e
00000150: e8e2 f83f 9aa3 483f 8e32 c43e 2e57 f93e
00000160: a2cf 263f 5db7 173f eeef 3a3f deb9 dd3e
00000170: 147b b03e 1594 4c3f 6b5a 033f 94d9 0e3f
00000180: 48b1 e53e 9859 833e 9f18 2d3f 8a4e 543f
00000190: 8c35 363f 957b c93e 3f1b 603e 48ad fb3e
000001a0: 1847 143f b9e1 6e3f 4fb6 4a3f ef70 143f
000001b0: 3412 0e3f 861f e13e 8436 ed3e 4b47 833f
000001c0: e46d d13e 28d1 903f 4a87 f23e f116 603f
000001d0: 7df9 2d3f e904 033f 45d8 a13e 0466 0c3f
000001e0: 64d2 093f 00fe 103f 2bb4 213f af15 c73e
000001f0: b2ac 033f 6a5a 0d3f 33d7 f53e a49e 873f
00000200: f23b 0f3f fbb2 c83e 4143 373f 3bde 073f
00000210: 8707 d13e 1e49 d53e 82e2 143f edca c83e
00000220: 1e98 c33e 13c9 1c3f e722 d13e 1493 1b3f
00000230: b159 be3e 368b a63e d10c e93e 2b50 e33e
00000240: 1597 eb3e 73da 0e3f 262e a03e d0c3 f63e
00000250: 65fa dd3e c89f 193f 208e 1b3f c7bc b63e
00000260: c70d ea3e 0b31 153f 9d0b e53e 76bf b73e
00000270: 3aa6 233f 0670 bb3e e130 9c3e 9d45 c13e
00000280: 367c 583f ec54 e23e 5add f13e 68aa 113f
00000290: 8daa 483f aa39 e03e 163e ad3e acb7 e83e
000002a0: d95e 313f 943c 013f 710d 053f 1d84 e83e
000002b0: fa17 cc3e e1df 113f 2948 f43e 520c ac3e
000002c0: e28d 963e 17a9 7c3f ed2d f13e 56e6 603f
000002d0: f65b 223f f6c8 233f 95d0 0a3f d503 b43e
000002e0: 101d 003f 6692 cd3e f398 cd3e a0a7 183f
000002f0: 068c fb3e c70e e23e 735b f83e fccc e73e
00000300: 0382 ab3e 155e fc3e e4e4 1f3f 55a1 0d3f
00000310: c969 dc3e ed1e 1c3f 559b 483f 7f24 273f
00000320: 3b80 593f 0fb1 1e3f 204c e83e 53f1 c23e
00000330: e854 ea3e b8bc ef3e 092d 333f dd68 473f
00000340: a977 da3e c81e 2c3f 7c60 133f bd36 333f
00000350: 8b9e 7d3f 169c e23e e996 133f 1344 213f
00000360: 8c2a 273f d9c2 173f 3867 a13e eee1 ba3e
00000370: 5e47 ea3e 15a4 b13e 5bf2 d73e 4912 e43e
00000380: 6854 ea3e cf11 223f f85d 213f 7faf 013f
00000390: d0af c53e 7ea6 743f ad3c e53e d0ab f93e
000003a0: 4fc2 213f 7228 bd3e 7f11 fc3e 5523 cc3e
000003b0: 8563 0c3f 054b c33e 4313 f63e 4cfe ed3e
000003c0: 7669 ee3e 3b4f 503f fcaa cd3e 2183 de3e
000003d0: df2e a23e b40a 383f d035 403f 4816 d83e
000003e0: 4ee3 993e 98f9 1e3f 5594 023f b195 ad3f
000003f0: 8f37 4c3f f1e5 0f3f ce33 0f3f a583 233f

network.5.weight f4 [128, 256]
-0.17569844 0.023318516 -0.06947216 -0.1514185 -0.018952776 -0.026394183 0.11874367 0.22912687
0.07416693 0.01284651 -0.08598309 -0.18937704 0.015021305 -0.084201835 0.0058861366 0.09826087
0.029067958 -0.17164761 -0.05985724 -0.1559784 0.0037588857 0.013360673 -0.08184283 -0.073492005
0.023812924 -0.02296909 0.14745425 -0.10438655 -0.085647516 -0.25147626 -0.06230537 0.045998134
-0.118907295 -0.17018864 -0.04140901 0.051211584 -0.14496717 -0.04414324 0.06018122 -0.17990378
0.101167716 0.016048905 -0.123564355 -0.015827067 0.0011354585 -0.053507466 0.004229381 -0.024677014
0.006686137 0.0028087634 0.08903613 -0.08454848 0.07308435 0.013685139 0.18987772 0.016748175
0.04720801 0.011232586 0.16107717 -0.15603255 0.11965031 -0.030411612 -0.02985371 0.011621889
-0.02617008 -0.09799818 0.0851021 -0.0018229862 -0.051588915 -0.12847963 -0.17930095 -0.07408715
0.103728674 -0.0414516 0.018122792 -0.021808438 0.060250763 0.036772292 0.037318703 -0.036133558
-0.024105787 -0.079180524 -0.08636451 -0.071942024 0.05274996 0.022536475 0.048195146 -0.13899952
0.021317827 0.036750313 -0.084703825 -0.005198481 0.12848495 0.100345105 -0.012118811 0.04573472
-0.062074725 0.0663976 -0.0014521246 0.056629345 -0.1017163 0.0034815103 -0.005116491 -0.13695547
0.033442184 0.08668098 0.021329712 -0.067449056 0.084417105 -0.013248265 0.06830589 0.18319024
-0.11938355 -0.0407686 -0.14219464 -0.14200829 0.04040487 0.06606358 -0.013412433 0.0044362354
-0.12456728 0.09673483 0.04335073 -0.10294999 0.009844462 0.06385849 -0.065861054 -0.07903827
-0.06683334 -0.14716431 -0.1125456 0.11462853 -0.15014815 0.046154045 0.04417765 -0.1850657
-0.05908035 -0.016928546 0.023583518 0.034457188 -0.061866302 -0.048102472 -0.07628655 -0.13576846
0.08412877 -0.08462917 -0.043689486 -0.058749285 0.06507661 -0.04278291 -0.00965768 -0.044378083
0.11389531 -0.21430261 -0.05475498 0.054423247 -0.07800829 0.08645081 -0.18294914 0.044048775
0.050225765 -0.00362972 0.0065814634 0.06155853 -0.0569695 0.08364284 -0.06649208 0.022498595
0.1494161 -0.024707435 0.17069334 0.0790505 0.016485807 -0.15450267 0.09892926 -0.07287224
0.013296081 -0.03265494 -0.1217047 -0.028302535 0.025066433 0.043163065 -0.052870825 -0.041011658
0.19088349 -0.06631946 0.060867004 0.06917522 0.11338589 0.031369608 -0.090453364 -0.14522053
-0.044272732 0.053781692 -0.08513715 0.054475076 -0.08288705 -0.054137755 0.0109661175 0.06984199
-0.038989794 0.017094804 -0.18419912 -0.13559443 -0.042049777 -0.014073749 -0.05345031 -0.14360946
-0.17021483 -0.002839828 -0.087275125 0.017047167 -0.06695153 -0.08187102 -0.121772714 0.08312627
0.029336303 0.0110588735 0.0784932 0.11830916 -0.021560386 -0.04765173 0.034353144 -0.01520855
0.071046665 -0.055397052 0.06764068 0.05832715 -0.020727536 0.0057885153 -0.036510725 0.2022776
-0.14694326 0.0043839654 -0.09872825 -0.06523808 -0.033870175 0.016149344 0.11565155 -0.06711601
0.013987831 -0.071121275 0.024753403 0.0945838 0.1322921 -0.06219034 -0.028537748 0.0045030694
-0.10117206 -0.08656843 -0.14683461 0.15115537 0.24434642 -0.019962432 -0.07717092 0.021375157
00000000: 4bea 33be 7906 bf3c 6b47 8ebd 740d 1bbe
00000010: da42 9bbc 9d38 d8bc e22f f33d 3ca0 6a3e
00000020: d5e4 973d 2b7a 523c e717 b0bd 0eec 41be
00000030: eb1b 763c 0372 acbd 7ee0 c03b ff3c c93d
00000040: ed1f ee3c 64c4 2fbe de2c 75bd cdb8 1fbe
00000050: a357 763b b9e6 5a3c 379d a7bd fa82 96bd
00000060: 5213 c33c ac29 bcbc 3ffe 163e 9ec8 d5bd
00000070: f767 afbd 7fc1 80be ea33 7fbd 8a68 3c3d
00000080: ab85 f3bd ee45 2ebe 7e9c 29bd 3dc3 513d
00000090: 4672 14be 8bcf 34bd 9580 763d b238 38be
000000a0: 0531 cf3d fe78 833c 4f0f fdbd c4a7 81bc
000000b0: aad3 943a a52a 5bbd 9f96 8a3b 7327 cabc
000000c0: 6217 db3b 3b13 383b 9358 b63d c127 adbd
000000d0: 3fad 953d a237 603c 4e6f 423e 7833 893c
000000e0: 305d 413d e108 383c 6af1 243e ffc6 1fbe
000000f0: 390b f53d c621 f9bc c58f f4bc bc69 3e3c
00000100: a362 d6bc 45b3 c8bd 034a ae3d 44f1 eeba
00000110: e64e 53bd 2a90 03be ab9a 37be 01bb 97bd
00000120: b36f d43d 27c9 29bd 4076 943c 9ca7 b2bc
00000130: 81c9 763d 8b9e 163d 7fdb 183d c800 14bd
00000140: 8079 c5bc 6629 a2bd e0df b0bd 5756 93bd
00000150: 5810 583d 6a9e b83c 4668 453d e455 0ebe
00000160: b9a2 ae3c 7f87 163d 3379 adbd 0558 aabb
00000170: 8f91 033e bc81 cd3d fa8d 46bc 5454 3b3d
00000180: 1142 7ebd 77fb 873d 3755 beba 2cf4 673d
00000190: a350 d0bd 0d2a 643b 3da8 a7bb 0e3e 0cbe
000001a0: acfa 083d cc85 b13d a6bb ae3c bb22 8abd
000001b0: e0e2 ac3d 400f 59bc f5e3 8b3d 3996 3b3e
000001c0: 5d7f f4bd fafc 26bd 799b 11be 9f6a 11be
000001d0: 947f 253d 584c 873d d2bf 5bbc d75d 913b
000001e0: 211d ffbd e91c c63d 8990 313d 72d7 d2bd
000001f0: ab4a 213c 3dc8 823d 29e2 86bd d1de a1bd
00000200: ebdf 88bd 3eb2 16be 4f7e e6bd 5dc2 ea3d
00000210: 70c0 19be 060c 3d3d a0f3 343d dd81 3dbe
00000220: 3dfe 71bd bcad 8abc 3932 c13c fb22 0d3d
00000230: 8567 7dbd 1907 45bd 1f3c 9cbd e306 0bbe
00000240: b44b ac3d 0f52 adbd bff3 32bd 17a3 70bd
00000250: e346 853d 223d 2fbd 3f3b 1ebc cbc5 35bd
00000260: f241 e93d 2572 5bbe c246 60bd e9ea 5e3d
00000270: cfc2 9fbd 1f0d b13d 0557 3bbe 7d6c 343d
00000280: 88b9 4d3d 99e0 6dbb 51a9 d73b cc24 7c3d
00000290: da58 69bd f04c ab3d 002d 88bd f94e b83c
000002a0: 8900 193e 3f67 cabc 3cca 2e3e 3be5 a13d
000002b0: 3e0d 873c f335 1ebe 6d9b ca3d 0a3e 95bd
000002c0: ced7 593c 30c1 05bd 5040 f9bd b8da e7bc
000002d0: 1f58 cd3c c1cb 303d 148f 58bd d7fb 27bd
000002e0: f676 433e 7fd2 87bd ae4f 793d bdab 8d3d
000002f0: dd36 e83d 6b7d 003d 9d3f b9bd b1b4 14be
00000300: 5357 35bd 314a 5c3d 635c aebd 4221 5f3d
00000310: b0c0 a9bd 8dbf 5dbd 3bab 333c 5109 8f3d
00000320: c3b3 1fbd 670a 8c3c b29e 3cbe 44d9 0abe
00000330: 633c 2cbd 9595 66bc b6ee 5abd 5c0e 13be
00000340: cc4c 2ebe 681c 3abb 4dbd b2bd 80a6 8b3c
00000350: e21d 89bd feab a7bd f963 f9bd 1b3e aa3d
00000360: b052 f03c 4730 353c 0bc1 a03d 134c f23d
00000370: 689f b0bc 762e 43bd e2b5 0c3d 482d 79bc
00000380: ea80 913d 05e8 62bd 3287 8a3d 73e8 6e3d
00000390: cbcc a9bc 96ad bd3b 458c 15bd dc21 4f3e
000003a0: 4b78 16be 5ea7 8f3b 0932 cabd 8b9b 85bd
000003b0: 74bb 0abd a14b 843c b8da ec3d 1e74 89bd
000003c0: 372d 653c 08a8 91bd a6c7 ca3c 27b5 c13d
000003d0: 9577 073e 4cbb 7ebd ffc7 e9bc 7c8e 933b
000003e0: 4c33 cfbd ca4a b1bd d05b 16be 79c8 1a3e
000003f0: f335 7a3e 4188 a3bc ca0b 9ebd f41a af3c

network.5.bias f4 [128]
-7.5908346e-08 -7.889387e-08 5.40488e-08 5.9091667e-07 2.7849038e-07 -7.2339907e-07 3.2939926e-07 -2.249535e-08
-2.7076652e-07 1.9373755e-07 5.26908e-07 4.8022844e-07 -5.376829e-07 -8.6974137e-07 -4.6657156e-08 1.5910239e-06
-6.050955e-07 -6.6205206e-07 -4.2397897e-07 -4.338169e-07 -1.3657296e-07 1.0075545e-06 3.4447777e-07 -2.808687e-07
-2.8499508e-07 4.4096882e-07 2.621142e-07 -2.7666684e-07 -5.6620274e-07 -1.0306863e-06 1.0795375e-06 1.617424e-07
3.9840296e-07 -2.1454139e-07 -4.141247e-07 1.2948713e-07 -9.659958e-07 -2.9449055e-08 3.1436073e-08 7.749977e-07
-4.1799836e-08 4.166385e-07 -2.1422152e-07 5.4278846e-08 4.187149e-07 -5.209595e-07 -1.0785887e-07 -6.221681e-07
-3.9516434e-07 -2.6581895e-07 1.07064785e-07 2.993169e-07 2.792619e-07 -2.6454225e-07 4.931018e-07 4.3242185e-08
-1.9234224e-07 -5.310887e-07 4.632856e-07 6.705633e-08 4.3753104e-07 -1.501223e-07 1.0953587e-07 -4.288764e-08
-2.8838673e-07 3.7222753e-07 1.8012389e-07 -4.757646e-07 -6.101343e-07 -2.3784956e-07 -1.467133e-07 6.2780174e-07
6.12041e-07 -3.9711577e-07 1.0282398e-06 3.6450768e-07 -6.3931344e-07 4.241762e-07 -1.2585421e-07 -4.1043933e-07
-3.334477e-07 -4.5454237e-07 9.3214777e-07 8.930535e-07 6.2016363e-07 -3.2056326e-07 -1.7420916e-08 -4.4657007e-08
-9.996073e-08 -1.10520624e-07 -2.468209e-07 5.694656e-07 -2.07415e-07 -6.462558e-07 -1.1709353e-07 2.548196e-07
1.197757e-07 4.0745832e-07 -1.9175529e-07 6.144912e-08 -2.1091049e-07 -2.419046e-07 4.9823586e-07 1.603247e-07
-2.6250245e-08 1.2697839e-07 6.807428e-07 1.5734166e-07 1.6341204e-08 5.470208e-07 7.586007e-08 -6.2464244e-07
-2.3525115e-07 -1.11807665e-07 -1.6727044e-07 -6.411385e-08 -1.7710683e-07 -4.503522e-07 9.5235305e-07 5.603663e-07
2.5367206e-07 -2.9117953e-07 -1.9158404e-07 1.4359634e-07 -3.957978e-08 2.688475e-07 3.535826e-07 -6.02171e-07
00000000: 0e03 a3b3 5d6c a9b3 4923 6833 7c9f 1e35
00000010: 6d83 9534 9b2f 42b5 4ad8 b034 cc3b c1b2
00000020: de5d 91b4 2c06 5034 d870 0d35 0ce9 0035
00000030: 4a55 10b5 2c78 69b5 1664 48b3 2a8b d535
00000040: d96d 22b5 dfb7 31b5 3a9f e3b4 57e7 e8b4
00000050: e4a4 12b4 4f3b 8735 aaf0 b834 4dca 96b4
00000060: 6d01 99b4 4bbe ec34 b4b8 8c34 cd88 94b4
00000070: 28fd 17b5 1d56 8ab5 a0e4 9035 6aab 2d34
00000080: 16e4 d534 b05c 66b4 de54 deb4 2709 0b34
00000090: 5da7 81b5 28f7 fcb2 5404 0733 7009 5035
000000a0: 6887 33b3 5cae df34 c304 66b4 3920 6933
000000b0: bdcb e034 10d8 0bb5 0aa0 e7b3 1103 27b5
000000c0: f926 d4b4 e1b5 8eb4 7deb e533 cdb1 a034
000000d0: 77ed 9534 6906 8eb4 b35d 0435 49b9 3933
000000e0: a286 4eb4 2390 0eb5 7db9 f834 9b00 9033
000000f0: cfe5 ea34 4e31 21b4 fb39 eb33 7533 38b3
00000100: 92d3 9ab4 90d6 c734 1468 4134 976c ffb4
00000110: 1cc8 23b5 9763 7fb4 3f88 1db4 3586 2835
00000120: 234b 2435 2d33 d5b4 0d02 8a35 8eb1 c334
00000130: 499d 2bb5 55ba e334 8b22 07b4 5a5a dcb4
00000140: b404 b3b4 d407 f4b4 b538 7a35 2bba 6f35
00000150: 5279 2635 e119 acb4 00a5 95b2 e6cc 3fb3
00000160: fea9 d6b3 5b57 edb3 ce82 84b4 61dd 1835
00000170: cdb5 5eb4 5c7a 2db5 d974 fbb3 24ce 8834
00000180: b29b 0034 a5c0 da34 4be5 4db4 03f6 8333
00000190: a276 62b4 1ddf 81b4 82be 0535 b825 2c34
000001a0: e67c e1b2 8e57 0834 4abc 3635 bff1 2834
000001b0: b05e 8c32 fcd6 1235 84e8 a233 1aad 27b5
000001c0: 5899 7cb4 ea1a f0b3 f39a 33b4 f6ae 89b3
000001d0: c12a 3eb4 efc7 f1b4 34a5 7f35 146c 1635
000001e0: 6c30 8834 6953 9cb4 38b6 4db4 762f 1a34
000001f0: 6efe 29b3 1e56 9034 06d4 bd34 e0a4 21b5

network.6.weight f4 [128]
0.99160767 0.833685 1.0968244 0.8861347 0.9368118 0.75732464 0.7966871 0.8912819
0.737909 1.0860249 0.9068966 0.87623465 0.7568678 0.73331106 0.73664916 0.90830696
1.0179418 0.67489445 0.95380825 1.0657121 0.9766673 0.7750595 0.8468772 0.8668222
0.8265249 1.0262125 0.8025779 0.89273715 0.7751089 0.9148675 0.78724265 0.7745794
0.9332145 0.7605613 0.97064024 0.84890413 0.7486749 0.8207561 0.85232264 0.80138046
0.73237383 0.9568223 1.1136628 0.79844064 0.66140753 0.818257 0.7948276 1.1033124
0.8494066 0.8364633 0.7567571 0.79920405 0.76910955 0.84558374 0.9072771 0.8079536
0.7864493 0.9032196 0.8223366 0.7193986 0.7797737 0.7502963 0.97150123 0.91785574
0.70965606 1.0134506 0.76026464 0.7857966 0.6941839 0.84392 0.9231443 0.82145053
0.8253093 0.8654292 0.85485494 0.7733041 0.858548 0.7169415 0.97141767 0.7405542
0.84248203 1.020366 1.0215219 1.0044733 0.7902977 0.8742287 1.1569147 0.82453567
0.7817434 0.74379134 0.6998343 0.7828942 0.750831 0.71921986 0.8087402 0.79051715
0.9415129 0.8073562 0.7668015 0.8843225 0.8108437 0.8715877 1.2700008 0.8233014
0.72500694 0.8683477 0.76039726 0.83192575 0.9400503 0.89165163 0.753857 0.7791784
0.90799004 0.724839 0.84100246 0.94659317 0.85467774 0.8172941 0.8213272 0.8554518
0.9944608 0.9878441 0.95186025 0.9466216 0.8461922 0.9119337 1.0842823 0.748438
00000000: 00da 7d3f 616c 553f be64 8c3f b9d9 623f
00000010: e6d2 6f3f 07e0 413f b0f3 4b3f 0d2b 643f
00000020: 9be7 3c3f dd02 8b3f 602a 683f ea50 603f
00000030: 17c2 413f 46ba 3b3f 0a95 3c3f ce86 683f
00000040: eb4b 823f e2c5 2c3f c72c 743f 4169 883f
00000050: de06 7a3f 4d6a 463f f2cc 583f 0fe8 5d3f
00000060: 2397 533f ee5a 833f bf75 4d3f 6c8a 643f
00000070: 896d 463f c234 6a3f bc88 493f d64a 463f
00000080: 25e7 6e3f 25b4 423f e17b 783f c851 593f
00000090: 29a9 3f3f 121d 523f d131 5a3f 4527 4d3f
000000a0: da7c 3b3f 4ef2 743f 818c 8e3f 9b66 4c3f
000000b0: 0152 293f 4a79 513f d279 4b3f 5739 8d3f
000000c0: b672 593f 7522 563f d5ba 413f a398 4c3f
000000d0: 5de4 443f 2d78 583f 5043 683f 0cd6 4e3f
000000e0: be54 493f 6639 673f a784 523f 822a 383f
000000f0: 409f 473f 6b13 403f 4eb4 783f 98f8 6a3f
00000100: 05ac 353f c0b8 813f b4a0 423f f729 493f
00000110: 09b6 313f 240b 583f 2f53 6c3f 954a 523f
00000120: 7847 533f c58c 5d3f c6d7 5a3f 42f7 453f
00000130: cdc9 5b3f 7a89 373f d4ae 783f f694 3d3f
00000140: e7ac 573f 5a9b 823f 3bc1 823f 9592 803f
00000150: f350 4a3f 74cd 5f3f c815 943f c514 533f
00000160: 5620 483f 1c69 3e3f 5728 333f c16b 483f
00000170: 7636 403f cb1e 383f 9909 4f3f 555f 4a3f
00000180: fd06 713f e5ae 4e3f 1a4d 443f f662 623f
00000190: 7493 4f3f 5f20 5f3f 638f a23f e1c3 523f
000001a0: 0e9a 393f 094c 5e3f 65a9 423f 16f9 543f
000001b0: 23a7 703f 4843 643f c6fc 403f 3c78 473f
000001c0: 0972 683f 0c8f 393f f04b 573f ee53 723f
000001d0: 29cc 5a3f 303a 513f 8042 523f e4fe 5a3f
000001e0: fc94 7e3f 5ae3 7c3f 1dad 733f cb55 723f
000001f0: 0da0 583f 7d74 693f c3c9 8a3f a299 3f3f
